…
+-----------------------------+------------------------------------------------+
| Wandb activate              | False                                          |
+-----------------------------+------------------------------------------------+
| Weight decay                | 0                                              |
+-----------------------------+------------------------------------------------+

Preparing dataset.

model params:330090
GTCNet(
  (embedding_learning): GCNTransformerEncoder(
    (GCN_first): DenseGCNConv(36, 128)
    (GCN_second): DenseGCNConv(128, 128)
    (GCN_third): DenseGCNConv(128, 128)
    (self_attention_norm): LayerNorm((128,), eps=1e-05, elementwise_affine=True)
    (self_attention): MultiHeadAttention(
      (linear_q): Linear(in_features=128, out_features=1024, bias=True)
      (linear_k): Linear(in_features=128, out_features=1024, bias=True)
      (linear_v): Linear(in_features=128, out_features=1024, bias=True)
      (att_dropout): Dropout(p=0.1, inplace=False)
      (output_layer): Linear(in_features=1024, out_features=128, bias=True)
    )
    (self_attention_dropout): Dropout(p=0.1, inplace=False)
    (ffn_norm): LayerNorm((128,), eps=1e-05, elementwise_affine=True)
    (ffn): FeedForwardNetwork(
      (layer1): Linear(in_features=128, out_features=128, bias=True)
      (gelu): GELU()
      (layer2): Linear(in_features=128, out_features=128, bias=True)
    )
    (ffn_dropout): Dropout(p=0.1, inplace=False)
  )
  (embedding_interaction): CrossTransformer(
    (cross_attention): CrossAttention(
      (linear_q): Linear(in_features=128, out_features=1024, bias=True)
      (linear_k): Linear(in_features=128, out_features=1024, bias=True)
    )
  )
  (sim_mat_learning): SimMatLearning(
    (channel_alignment): ChannelAlignment(
      (self_attention_norm): LayerNorm((100,), eps=1e-05, elementwise_affine=True)
      (self_attention): MultiHeadAttention(
        (linear_q): Linear(in_features=100, out_features=400, bias=True)
        (linear_k): Linear(in_features=100, out_features=400, bias=True)
        (linear_v): Linear(in_features=100, out_features=400, bias=True)
        (att_dropout): Dropout(p=0.1, inplace=False)
        (output_layer): Linear(in_features=400, out_features=100, bias=True)
      )
      (self_attention_dropout): Dropout(p=0.1, inplace=False)
      (ffn_norm): LayerNorm((100,), eps=1e-05, elementwise_affine=True)
      (ffn): FeedForwardNetwork(
        (layer1): Linear(in_features=100, out_features=128, bias=True)
        (gelu): GELU()
        (layer2): Linear(in_features=128, out_features=100, bias=True)
      )
      (ffn_dropout): Dropout(p=0.1, inplace=False)
    )
    (sim_CNN): SimCNN(
      (e2econv1): E2EBlock(
        (cnn1): Conv2d(16, 32, kernel_size=(1, 10), stride=(1, 1))
        (cnn2): Conv2d(16, 32, kernel_size=(10, 1), stride=(1, 1))
      )
      (e2econv2): E2EBlock(
        (cnn1): Conv2d(32, 64, kernel_size=(1, 10), stride=(1, 1))
        (cnn2): Conv2d(32, 64, kernel_size=(10, 1), stride=(1, 1))
      )
      (E2N): Conv2d(64, 1, kernel_size=(1, 10), stride=(1, 1))
      (N2G): Conv2d(1, 256, kernel_size=(10, 1), stride=(1, 1))
      (fc_1): Linear(in_features=256, out_features=128, bias=True)
      (fc_2): Linear(in_features=128, out_features=64, bias=True)
      (fc_3): Linear(in_features=64, out_features=32, bias=True)
      (fc_4): Linear(in_features=32, out_features=1, bias=True)
    )
  )
)

Model training.

Iteration = 0
	batch loss = 35.75649422903856 (e-3)
	rho = -0.1832465484364387 
	tau = -0.1209484026589898 @ 0:00:01.106793
Iteration = 500
	batch loss = 2.560518371562163 (e-3)
	rho = 0.8900985645686742 
	tau = 0.7243378798997102 @ 0:04:39.159038
Epoch  2533: reducing learning rate of group 0 to 2.5000e-04.
Iteration = 1000
	batch loss = 2.316207935412725 (e-3)
…
	validation mse: 2.033828425088099
	validation mse: 2.8703718978379453
	validation mse: 1.9979771093598433
	validation mse: 1.8847518068339144
	validation mse: 1.8409816814320428
	validation mse: 2.1551931543009624

Model evaluation.
Test results:
	 test_mse = 1.7215173330828712
	 test_rho = 0.9012682560508556
	 test_tau = 0.7599284478705656
	 test_p10 = 0.5864285714285714
	 test_p20 = 0.6603571428571429
Model params:884426
GTCNet(
  (embedding_learning): GCNTransformerEncoder(
    (GCN_first): DenseGCNConv(8, 32)
    (GCN_second): DenseGCNConv(32, 32)
    (GCN_third): DenseGCNConv(32, 32)
    (self_attention_norm): LayerNorm((32,), eps=1e-05, elementwise_affine=True)
    (self_attention): MultiHeadAttention(
      (linear_q): Linear(in_features=32, out_features=256, bias=True)
      (linear_k): Linear(in_features=32, out_features=256, bias=True)
      (linear_v): Linear(in_features=32, out_features=256, bias=True)
      (att_dropout): Dropout(p=0.1, inplace=False)
      (output_layer): Linear(in_features=256, out_features=32, bias=True)
    )
    (self_attention_dropout): Dropout(p=0.1, inplace=False)
    (ffn_norm): LayerNorm((32,), eps=1e-05, elementwise_affine=True)
    (ffn): FeedForwardNetwork(
      (layer1): Linear(in_features=32, out_features=128, bias=True)
      (gelu): GELU()
      (layer2): Linear(in_features=128, out_features=32, bias=True)
    )
    (ffn_dropout): Dropout(p=0.1, inplace=False)
  )
  (embedding_interaction): CrossTransformer(
    (cross_attention): CrossAttention(
      (linear_q): Linear(in_features=32, out_features=256, bias=True)
      (linear_k): Linear(in_features=32, out_features=256, bias=True)
    )
  )
  (sim_mat_learning): SimMatLearning(
    (channel_alignment): ChannelAlignment(
      (self_attention_norm): LayerNorm((100,), eps=1e-05, elementwise_affine=True)
      (self_attention): MultiHeadAttention(
        (linear_q): Linear(in_features=100, out_features=400, bias=True)
        (linear_k): Linear(in_features=100, out_features=400, bias=True)
        (linear_v): Linear(in_features=100, out_features=400, bias=True)
        (att_dropout): Dropout(p=0.1, inplace=False)
        (output_layer): Linear(in_features=400, out_features=100, bias=True)
      )
      (self_attention_dropout): Dropout(p=0.1, inplace=False)
      (ffn_norm): LayerNorm((100,), eps=1e-05, elementwise_affine=True)
      (ffn): FeedForwardNetwork(
        (layer1): Linear(in_features=100, out_features=128, bias=True)
        (gelu): GELU()
        (layer2): Linear(in_features=128, out_features=100, bias=True)
      )
      (ffn_dropout): Dropout(p=0.1, inplace=False)
    )
    (sim_CNN): SimCNN(
      (e2econv1): E2EBlock(
        (cnn1): Conv2d(16, 32, kernel_size=(1, 10), stride=(1, 1))
        (cnn2): Conv2d(16, 32, kernel_size=(10, 1), stride=(1, 1))
      )
      (e2econv2): E2EBlock(
        (cnn1): Conv2d(32, 64, kernel_size=(1, 10), stride=(1, 1))
        (cnn2): Conv2d(32, 64, kernel_size=(10, 1), stride=(1, 1))
      )
      (E2N): Conv2d(64, 1, kernel_size=(1, 10), stride=(1, 1))
      (N2G): Conv2d(1, 256, kernel_size=(10, 1), stride=(1, 1))
      (fc_1): Linear(in_features=256, out_features=128, bias=True)
      (fc_2): Linear(in_features=128, out_features=64, bias=True)
      (fc_3): Linear(in_features=64, out_features=32, bias=True)
      (fc_4): Linear(in_features=32, out_features=1, bias=True)
    )
  )
)

Model training.

Iteration = 0
	batch loss = 41.762339882552624 (e-3)
	rho = 0.09726352935064164 
	tau = 0.06893880949370224 @ 0:00:02.110559
Iteration = 500
	batch loss = 0.7634104986209422 (e-3)
	rho = 0.9909696724277249 
	tau = 0.9306685600443461 @ 0:07:29.363951
Epoch  2665: reducing learning rate of group 0 to 2.5000e-04.
Iteration = 1000
…
	validation mse: 0.8265233039855957
	validation mse: 0.33452577888965607
	validation mse: 0.5992349795997143
	validation mse: 0.5241353437304497
	validation mse: 0.3159287851303816
	validation mse: 0.45574513264000416

Model evaluation.
Test results:
	 test_mse = 0.21681464824060784
	 test_rho = 0.991690030894928
	 test_tau = 0.9579651409481823
	 test_p10 = 0.991
	 test_p20 = 0.9682499999999998
Model params:330090
GTCNet(
  (embedding_learning): GCNTransformerEncoder(
    (GCN_first): DenseGCNConv(89, 32)
    (GCN_second): DenseGCNConv(32, 32)
    (GCN_third): DenseGCNConv(32, 32)
    (self_attention_norm): LayerNorm((32,), eps=1e-05, elementwise_affine=True)
    (self_attention): MultiHeadAttention(
      (linear_q): Linear(in_features=32, out_features=256, bias=True)
      (linear_k): Linear(in_features=32, out_features=256, bias=True)
      (linear_v): Linear(in_features=32, out_features=256, bias=True)
      (att_dropout): Dropout(p=0.1, inplace=False)
      (output_layer): Linear(in_features=256, out_features=32, bias=True)
    )
    (self_attention_dropout): Dropout(p=0.1, inplace=False)
    (ffn_norm): LayerNorm((32,), eps=1e-05, elementwise_affine=True)
    (ffn): FeedForwardNetwork(
      (layer1): Linear(in_features=32, out_features=128, bias=True)
      (gelu): GELU()
      (layer2): Linear(in_features=128, out_features=32, bias=True)
    )
    (ffn_dropout): Dropout(p=0.1, inplace=False)
  )
  (embedding_interaction): CrossTransformer(
    (cross_attention): CrossAttention(
      (linear_q): Linear(in_features=32, out_features=256, bias=True)
      (linear_k): Linear(in_features=32, out_features=256, bias=True)
    )
    (pooling): AdaptiveAvgPool2d(output_size=(20, 20))
  )
  (sim_mat_learning): SimMatLearning(
    (channel_alignment): ChannelAlignment(
      (self_attention_norm): LayerNorm((400,), eps=1e-05, elementwise_affine=True)
      (self_attention): MultiHeadAttention(
        (linear_q): Linear(in_features=400, out_features=3200, bias=True)
        (linear_k): Linear(in_features=400, out_features=3200, bias=True)
        (linear_v): Linear(in_features=400, out_features=3200, bias=True)
        (att_dropout): Dropout(p=0.1, inplace=False)
        (output_layer): Linear(in_features=3200, out_features=400, bias=True)
      )
      (self_attention_dropout): Dropout(p=0.1, inplace=False)
      (ffn_norm): LayerNorm((400,), eps=1e-05, elementwise_affine=True)
      (ffn): FeedForwardNetwork(
        (layer1): Linear(in_features=400, out_features=128, bias=True)
        (gelu): GELU()
        (layer2): Linear(in_features=128, out_features=400, bias=True)
      )
      (ffn_dropout): Dropout(p=0.1, inplace=False)
    )
    (sim_CNN): SimCNN(
      (e2econv1): E2EBlock(
        (cnn1): Conv2d(16, 32, kernel_size=(1, 20), stride=(1, 1))
        (cnn2): Conv2d(16, 32, kernel_size=(20, 1), stride=(1, 1))
      )
      (e2econv2): E2EBlock(
        (cnn1): Conv2d(32, 64, kernel_size=(1, 20), stride=(1, 1))
        (cnn2): Conv2d(32, 64, kernel_size=(20, 1), stride=(1, 1))
      )
      (E2N): Conv2d(64, 1, kernel_size=(1, 20), stride=(1, 1))
      (N2G): Conv2d(1, 256, kernel_size=(20, 1), stride=(1, 1))
      (fc_1): Linear(in_features=256, out_features=128, bias=True)
      (fc_2): Linear(in_features=128, out_features=64, bias=True)
      (fc_3): Linear(in_features=64, out_features=32, bias=True)
      (fc_4): Linear(in_features=32, out_features=1, bias=True)
    )
  )
)

Model training.

Iteration = 0
	batch loss = 161.62432304450445 (e-3)
	rho = -0.16442171013487072 
	tau = -0.10356930931024687 @ 0:00:03.145652
Epoch  3399: reducing learning rate of group 0 to 2.5000e-04.
Iteration = 500
	batch loss = 1.1600226696048463 (e-3)
	rho = 0.9762501167371234 
	tau = 0.876528601243684 @ 0:11:29.912107
Epoch  5058: reducing learning rate of group 0 to 1.2500e-04.
…
